called with args ['src/puupl/run.py', 'configs/cterm.yaml', 'cv_current_fold:1', 'cv_total_folds:10', 'exp_params.model_checkpoint_path:./checkpoints/cterm-puupl-r1', 'oversampled_prior:0.5']
Updated value of dataset.cv_current_fold from -1 to 1
Updated value of dataset.cv_total_folds from 10 to 10
Updated value of exp_params.model_checkpoint_path from None to ./checkpoints/cterm-puupl-r1
Updated value of loss.params.positive_unlabeled_loss.params.oversampled_prior from 0.5 to 0.5
Sequential(
  (0): Linear(in_features=240, out_features=64, bias=False)
  (1): BatchNorm1d(64, eps=1e-05, momentum=0.1, affine=True, track_running_stats=True)
  (2): ReLU()
  (3): Linear(in_features=64, out_features=64, bias=False)
  (4): BatchNorm1d(64, eps=1e-05, momentum=0.1, affine=True, track_running_stats=True)
  (5): ReLU()
  (6): Linear(in_features=64, out_features=64, bias=False)
  (7): BatchNorm1d(64, eps=1e-05, momentum=0.1, affine=True, track_running_stats=True)
  (8): ReLU()
  (9): Linear(in_features=64, out_features=64, bias=False)
  (10): BatchNorm1d(64, eps=1e-05, momentum=0.1, affine=True, track_running_stats=True)
  (11): ReLU()
  (12): Linear(in_features=64, out_features=64, bias=False)
  (13): BatchNorm1d(64, eps=1e-05, momentum=0.1, affine=True, track_running_stats=True)
  (14): ReLU()
  (15): Linear(in_features=64, out_features=1, bias=True)
)
Sequential(
  (0): Linear(in_features=240, out_features=64, bias=False)
  (1): BatchNorm1d(64, eps=1e-05, momentum=0.1, affine=True, track_running_stats=True)
  (2): ReLU()
  (3): Linear(in_features=64, out_features=64, bias=False)
  (4): BatchNorm1d(64, eps=1e-05, momentum=0.1, affine=True, track_running_stats=True)
  (5): ReLU()
  (6): Linear(in_features=64, out_features=64, bias=False)
  (7): BatchNorm1d(64, eps=1e-05, momentum=0.1, affine=True, track_running_stats=True)
  (8): ReLU()
  (9): Linear(in_features=64, out_features=64, bias=False)
  (10): BatchNorm1d(64, eps=1e-05, momentum=0.1, affine=True, track_running_stats=True)
  (11): ReLU()
  (12): Linear(in_features=64, out_features=64, bias=False)
  (13): BatchNorm1d(64, eps=1e-05, momentum=0.1, affine=True, track_running_stats=True)
  (14): ReLU()
  (15): Linear(in_features=64, out_features=1, bias=True)
)
Sequential(
  (0): Linear(in_features=240, out_features=64, bias=False)
  (1): BatchNorm1d(64, eps=1e-05, momentum=0.1, affine=True, track_running_stats=True)
  (2): ReLU()
  (3): Linear(in_features=64, out_features=64, bias=False)
  (4): BatchNorm1d(64, eps=1e-05, momentum=0.1, affine=True, track_running_stats=True)
  (5): ReLU()
  (6): Linear(in_features=64, out_features=64, bias=False)
  (7): BatchNorm1d(64, eps=1e-05, momentum=0.1, affine=True, track_running_stats=True)
  (8): ReLU()
  (9): Linear(in_features=64, out_features=64, bias=False)
  (10): BatchNorm1d(64, eps=1e-05, momentum=0.1, affine=True, track_running_stats=True)
  (11): ReLU()
  (12): Linear(in_features=64, out_features=64, bias=False)
  (13): BatchNorm1d(64, eps=1e-05, momentum=0.1, affine=True, track_running_stats=True)
  (14): ReLU()
  (15): Linear(in_features=64, out_features=1, bias=True)
)
Sequential(
  (0): Linear(in_features=240, out_features=64, bias=False)
  (1): BatchNorm1d(64, eps=1e-05, momentum=0.1, affine=True, track_running_stats=True)
  (2): ReLU()
  (3): Linear(in_features=64, out_features=64, bias=False)
  (4): BatchNorm1d(64, eps=1e-05, momentum=0.1, affine=True, track_running_stats=True)
  (5): ReLU()
  (6): Linear(in_features=64, out_features=64, bias=False)
  (7): BatchNorm1d(64, eps=1e-05, momentum=0.1, affine=True, track_running_stats=True)
  (8): ReLU()
  (9): Linear(in_features=64, out_features=64, bias=False)
  (10): BatchNorm1d(64, eps=1e-05, momentum=0.1, affine=True, track_running_stats=True)
  (11): ReLU()
  (12): Linear(in_features=64, out_features=64, bias=False)
  (13): BatchNorm1d(64, eps=1e-05, momentum=0.1, affine=True, track_running_stats=True)
  (14): ReLU()
  (15): Linear(in_features=64, out_features=1, bias=True)
)
Sequential(
  (0): Linear(in_features=240, out_features=64, bias=False)
  (1): BatchNorm1d(64, eps=1e-05, momentum=0.1, affine=True, track_running_stats=True)
  (2): ReLU()
  (3): Linear(in_features=64, out_features=64, bias=False)
  (4): BatchNorm1d(64, eps=1e-05, momentum=0.1, affine=True, track_running_stats=True)
  (5): ReLU()
  (6): Linear(in_features=64, out_features=64, bias=False)
  (7): BatchNorm1d(64, eps=1e-05, momentum=0.1, affine=True, track_running_stats=True)
  (8): ReLU()
  (9): Linear(in_features=64, out_features=64, bias=False)
  (10): BatchNorm1d(64, eps=1e-05, momentum=0.1, affine=True, track_running_stats=True)
  (11): ReLU()
  (12): Linear(in_features=64, out_features=64, bias=False)
  (13): BatchNorm1d(64, eps=1e-05, momentum=0.1, affine=True, track_running_stats=True)
  (14): ReLU()
  (15): Linear(in_features=64, out_features=1, bias=True)
)
Sequential(
  (0): Linear(in_features=240, out_features=64, bias=False)
  (1): BatchNorm1d(64, eps=1e-05, momentum=0.1, affine=True, track_running_stats=True)
  (2): ReLU()
  (3): Linear(in_features=64, out_features=64, bias=False)
  (4): BatchNorm1d(64, eps=1e-05, momentum=0.1, affine=True, track_running_stats=True)
  (5): ReLU()
  (6): Linear(in_features=64, out_features=64, bias=False)
  (7): BatchNorm1d(64, eps=1e-05, momentum=0.1, affine=True, track_running_stats=True)
  (8): ReLU()
  (9): Linear(in_features=64, out_features=64, bias=False)
  (10): BatchNorm1d(64, eps=1e-05, momentum=0.1, affine=True, track_running_stats=True)
  (11): ReLU()
  (12): Linear(in_features=64, out_features=64, bias=False)
  (13): BatchNorm1d(64, eps=1e-05, momentum=0.1, affine=True, track_running_stats=True)
  (14): ReLU()
  (15): Linear(in_features=64, out_features=1, bias=True)
)
Sequential(
  (0): Linear(in_features=240, out_features=64, bias=False)
  (1): BatchNorm1d(64, eps=1e-05, momentum=0.1, affine=True, track_running_stats=True)
  (2): ReLU()
  (3): Linear(in_features=64, out_features=64, bias=False)
  (4): BatchNorm1d(64, eps=1e-05, momentum=0.1, affine=True, track_running_stats=True)
  (5): ReLU()
  (6): Linear(in_features=64, out_features=64, bias=False)
  (7): BatchNorm1d(64, eps=1e-05, momentum=0.1, affine=True, track_running_stats=True)
  (8): ReLU()
  (9): Linear(in_features=64, out_features=64, bias=False)
  (10): BatchNorm1d(64, eps=1e-05, momentum=0.1, affine=True, track_running_stats=True)
  (11): ReLU()
  (12): Linear(in_features=64, out_features=64, bias=False)
  (13): BatchNorm1d(64, eps=1e-05, momentum=0.1, affine=True, track_running_stats=True)
  (14): ReLU()
  (15): Linear(in_features=64, out_features=1, bias=True)
)
Sequential(
  (0): Linear(in_features=240, out_features=64, bias=False)
  (1): BatchNorm1d(64, eps=1e-05, momentum=0.1, affine=True, track_running_stats=True)
  (2): ReLU()
  (3): Linear(in_features=64, out_features=64, bias=False)
  (4): BatchNorm1d(64, eps=1e-05, momentum=0.1, affine=True, track_running_stats=True)
  (5): ReLU()
  (6): Linear(in_features=64, out_features=64, bias=False)
  (7): BatchNorm1d(64, eps=1e-05, momentum=0.1, affine=True, track_running_stats=True)
  (8): ReLU()
  (9): Linear(in_features=64, out_features=64, bias=False)
  (10): BatchNorm1d(64, eps=1e-05, momentum=0.1, affine=True, track_running_stats=True)
  (11): ReLU()
  (12): Linear(in_features=64, out_features=64, bias=False)
  (13): BatchNorm1d(64, eps=1e-05, momentum=0.1, affine=True, track_running_stats=True)
  (14): ReLU()
  (15): Linear(in_features=64, out_features=1, bias=True)
)
Sequential(
  (0): Linear(in_features=240, out_features=64, bias=False)
  (1): BatchNorm1d(64, eps=1e-05, momentum=0.1, affine=True, track_running_stats=True)
  (2): ReLU()
  (3): Linear(in_features=64, out_features=64, bias=False)
  (4): BatchNorm1d(64, eps=1e-05, momentum=0.1, affine=True, track_running_stats=True)
  (5): ReLU()
  (6): Linear(in_features=64, out_features=64, bias=False)
  (7): BatchNorm1d(64, eps=1e-05, momentum=0.1, affine=True, track_running_stats=True)
  (8): ReLU()
  (9): Linear(in_features=64, out_features=64, bias=False)
  (10): BatchNorm1d(64, eps=1e-05, momentum=0.1, affine=True, track_running_stats=True)
  (11): ReLU()
  (12): Linear(in_features=64, out_features=64, bias=False)
  (13): BatchNorm1d(64, eps=1e-05, momentum=0.1, affine=True, track_running_stats=True)
  (14): ReLU()
  (15): Linear(in_features=64, out_features=1, bias=True)
)
Sequential(
  (0): Linear(in_features=240, out_features=64, bias=False)
  (1): BatchNorm1d(64, eps=1e-05, momentum=0.1, affine=True, track_running_stats=True)
  (2): ReLU()
  (3): Linear(in_features=64, out_features=64, bias=False)
  (4): BatchNorm1d(64, eps=1e-05, momentum=0.1, affine=True, track_running_stats=True)
  (5): ReLU()
  (6): Linear(in_features=64, out_features=64, bias=False)
  (7): BatchNorm1d(64, eps=1e-05, momentum=0.1, affine=True, track_running_stats=True)
  (8): ReLU()
  (9): Linear(in_features=64, out_features=64, bias=False)
  (10): BatchNorm1d(64, eps=1e-05, momentum=0.1, affine=True, track_running_stats=True)
  (11): ReLU()
  (12): Linear(in_features=64, out_features=64, bias=False)
  (13): BatchNorm1d(64, eps=1e-05, momentum=0.1, affine=True, track_running_stats=True)
  (14): ReLU()
  (15): Linear(in_features=64, out_features=1, bias=True)
)
Sequential(
  (0): Linear(in_features=240, out_features=64, bias=False)
  (1): BatchNorm1d(64, eps=1e-05, momentum=0.1, affine=True, track_running_stats=True)
  (2): ReLU()
  (3): Linear(in_features=64, out_features=64, bias=False)
  (4): BatchNorm1d(64, eps=1e-05, momentum=0.1, affine=True, track_running_stats=True)
  (5): ReLU()
  (6): Linear(in_features=64, out_features=64, bias=False)
  (7): BatchNorm1d(64, eps=1e-05, momentum=0.1, affine=True, track_running_stats=True)
  (8): ReLU()
  (9): Linear(in_features=64, out_features=64, bias=False)
  (10): BatchNorm1d(64, eps=1e-05, momentum=0.1, affine=True, track_running_stats=True)
  (11): ReLU()
  (12): Linear(in_features=64, out_features=64, bias=False)
  (13): BatchNorm1d(64, eps=1e-05, momentum=0.1, affine=True, track_running_stats=True)
  (14): ReLU()
  (15): Linear(in_features=64, out_features=1, bias=True)
)
Sequential(
  (0): Linear(in_features=240, out_features=64, bias=False)
  (1): BatchNorm1d(64, eps=1e-05, momentum=0.1, affine=True, track_running_stats=True)
  (2): ReLU()
  (3): Linear(in_features=64, out_features=64, bias=False)
  (4): BatchNorm1d(64, eps=1e-05, momentum=0.1, affine=True, track_running_stats=True)
  (5): ReLU()
  (6): Linear(in_features=64, out_features=64, bias=False)
  (7): BatchNorm1d(64, eps=1e-05, momentum=0.1, affine=True, track_running_stats=True)
  (8): ReLU()
  (9): Linear(in_features=64, out_features=64, bias=False)
  (10): BatchNorm1d(64, eps=1e-05, momentum=0.1, affine=True, track_running_stats=True)
  (11): ReLU()
  (12): Linear(in_features=64, out_features=64, bias=False)
  (13): BatchNorm1d(64, eps=1e-05, momentum=0.1, affine=True, track_running_stats=True)
  (14): ReLU()
  (15): Linear(in_features=64, out_features=1, bias=True)
)
Sequential(
  (0): Linear(in_features=240, out_features=64, bias=False)
  (1): BatchNorm1d(64, eps=1e-05, momentum=0.1, affine=True, track_running_stats=True)
  (2): ReLU()
  (3): Linear(in_features=64, out_features=64, bias=False)
  (4): BatchNorm1d(64, eps=1e-05, momentum=0.1, affine=True, track_running_stats=True)
  (5): ReLU()
  (6): Linear(in_features=64, out_features=64, bias=False)
  (7): BatchNorm1d(64, eps=1e-05, momentum=0.1, affine=True, track_running_stats=True)
  (8): ReLU()
  (9): Linear(in_features=64, out_features=64, bias=False)
  (10): BatchNorm1d(64, eps=1e-05, momentum=0.1, affine=True, track_running_stats=True)
  (11): ReLU()
  (12): Linear(in_features=64, out_features=64, bias=False)
  (13): BatchNorm1d(64, eps=1e-05, momentum=0.1, affine=True, track_running_stats=True)
  (14): ReLU()
  (15): Linear(in_features=64, out_features=1, bias=True)
)
Sequential(
  (0): Linear(in_features=240, out_features=64, bias=False)
  (1): BatchNorm1d(64, eps=1e-05, momentum=0.1, affine=True, track_running_stats=True)
  (2): ReLU()
  (3): Linear(in_features=64, out_features=64, bias=False)
  (4): BatchNorm1d(64, eps=1e-05, momentum=0.1, affine=True, track_running_stats=True)
  (5): ReLU()
  (6): Linear(in_features=64, out_features=64, bias=False)
  (7): BatchNorm1d(64, eps=1e-05, momentum=0.1, affine=True, track_running_stats=True)
  (8): ReLU()
  (9): Linear(in_features=64, out_features=64, bias=False)
  (10): BatchNorm1d(64, eps=1e-05, momentum=0.1, affine=True, track_running_stats=True)
  (11): ReLU()
  (12): Linear(in_features=64, out_features=64, bias=False)
  (13): BatchNorm1d(64, eps=1e-05, momentum=0.1, affine=True, track_running_stats=True)
  (14): ReLU()
  (15): Linear(in_features=64, out_features=1, bias=True)
)
Sequential(
  (0): Linear(in_features=240, out_features=64, bias=False)
  (1): BatchNorm1d(64, eps=1e-05, momentum=0.1, affine=True, track_running_stats=True)
  (2): ReLU()
  (3): Linear(in_features=64, out_features=64, bias=False)
  (4): BatchNorm1d(64, eps=1e-05, momentum=0.1, affine=True, track_running_stats=True)
  (5): ReLU()
  (6): Linear(in_features=64, out_features=64, bias=False)
  (7): BatchNorm1d(64, eps=1e-05, momentum=0.1, affine=True, track_running_stats=True)
  (8): ReLU()
  (9): Linear(in_features=64, out_features=64, bias=False)
  (10): BatchNorm1d(64, eps=1e-05, momentum=0.1, affine=True, track_running_stats=True)
  (11): ReLU()
  (12): Linear(in_features=64, out_features=64, bias=False)
  (13): BatchNorm1d(64, eps=1e-05, momentum=0.1, affine=True, track_running_stats=True)
  (14): ReLU()
  (15): Linear(in_features=64, out_features=1, bias=True)
)
Sequential(
  (0): Linear(in_features=240, out_features=64, bias=False)
  (1): BatchNorm1d(64, eps=1e-05, momentum=0.1, affine=True, track_running_stats=True)
  (2): ReLU()
  (3): Linear(in_features=64, out_features=64, bias=False)
  (4): BatchNorm1d(64, eps=1e-05, momentum=0.1, affine=True, track_running_stats=True)
  (5): ReLU()
  (6): Linear(in_features=64, out_features=64, bias=False)
  (7): BatchNorm1d(64, eps=1e-05, momentum=0.1, affine=True, track_running_stats=True)
  (8): ReLU()
  (9): Linear(in_features=64, out_features=64, bias=False)
  (10): BatchNorm1d(64, eps=1e-05, momentum=0.1, affine=True, track_running_stats=True)
  (11): ReLU()
  (12): Linear(in_features=64, out_features=64, bias=False)
  (13): BatchNorm1d(64, eps=1e-05, momentum=0.1, affine=True, track_running_stats=True)
  (14): ReLU()
  (15): Linear(in_features=64, out_features=1, bias=True)
)
Sequential(
  (0): Linear(in_features=240, out_features=64, bias=False)
  (1): BatchNorm1d(64, eps=1e-05, momentum=0.1, affine=True, track_running_stats=True)
  (2): ReLU()
  (3): Linear(in_features=64, out_features=64, bias=False)
  (4): BatchNorm1d(64, eps=1e-05, momentum=0.1, affine=True, track_running_stats=True)
  (5): ReLU()
  (6): Linear(in_features=64, out_features=64, bias=False)
  (7): BatchNorm1d(64, eps=1e-05, momentum=0.1, affine=True, track_running_stats=True)
  (8): ReLU()
  (9): Linear(in_features=64, out_features=64, bias=False)
  (10): BatchNorm1d(64, eps=1e-05, momentum=0.1, affine=True, track_running_stats=True)
  (11): ReLU()
  (12): Linear(in_features=64, out_features=64, bias=False)
  (13): BatchNorm1d(64, eps=1e-05, momentum=0.1, affine=True, track_running_stats=True)
  (14): ReLU()
  (15): Linear(in_features=64, out_features=1, bias=True)
)
Sequential(
  (0): Linear(in_features=240, out_features=64, bias=False)
  (1): BatchNorm1d(64, eps=1e-05, momentum=0.1, affine=True, track_running_stats=True)
  (2): ReLU()
  (3): Linear(in_features=64, out_features=64, bias=False)
  (4): BatchNorm1d(64, eps=1e-05, momentum=0.1, affine=True, track_running_stats=True)
  (5): ReLU()
  (6): Linear(in_features=64, out_features=64, bias=False)
  (7): BatchNorm1d(64, eps=1e-05, momentum=0.1, affine=True, track_running_stats=True)
  (8): ReLU()
  (9): Linear(in_features=64, out_features=64, bias=False)
  (10): BatchNorm1d(64, eps=1e-05, momentum=0.1, affine=True, track_running_stats=True)
  (11): ReLU()
  (12): Linear(in_features=64, out_features=64, bias=False)
  (13): BatchNorm1d(64, eps=1e-05, momentum=0.1, affine=True, track_running_stats=True)
  (14): ReLU()
  (15): Linear(in_features=64, out_features=1, bias=True)
)
Sequential(
  (0): Linear(in_features=240, out_features=64, bias=False)
  (1): BatchNorm1d(64, eps=1e-05, momentum=0.1, affine=True, track_running_stats=True)
  (2): ReLU()
  (3): Linear(in_features=64, out_features=64, bias=False)
  (4): BatchNorm1d(64, eps=1e-05, momentum=0.1, affine=True, track_running_stats=True)
  (5): ReLU()
  (6): Linear(in_features=64, out_features=64, bias=False)
  (7): BatchNorm1d(64, eps=1e-05, momentum=0.1, affine=True, track_running_stats=True)
  (8): ReLU()
  (9): Linear(in_features=64, out_features=64, bias=False)
  (10): BatchNorm1d(64, eps=1e-05, momentum=0.1, affine=True, track_running_stats=True)
  (11): ReLU()
  (12): Linear(in_features=64, out_features=64, bias=False)
  (13): BatchNorm1d(64, eps=1e-05, momentum=0.1, affine=True, track_running_stats=True)
  (14): ReLU()
  (15): Linear(in_features=64, out_features=1, bias=True)
)
Sequential(
  (0): Linear(in_features=240, out_features=64, bias=False)
  (1): BatchNorm1d(64, eps=1e-05, momentum=0.1, affine=True, track_running_stats=True)
  (2): ReLU()
  (3): Linear(in_features=64, out_features=64, bias=False)
  (4): BatchNorm1d(64, eps=1e-05, momentum=0.1, affine=True, track_running_stats=True)
  (5): ReLU()
  (6): Linear(in_features=64, out_features=64, bias=False)
  (7): BatchNorm1d(64, eps=1e-05, momentum=0.1, affine=True, track_running_stats=True)
  (8): ReLU()
  (9): Linear(in_features=64, out_features=64, bias=False)
  (10): BatchNorm1d(64, eps=1e-05, momentum=0.1, affine=True, track_running_stats=True)
  (11): ReLU()
  (12): Linear(in_features=64, out_features=64, bias=False)
  (13): BatchNorm1d(64, eps=1e-05, momentum=0.1, affine=True, track_running_stats=True)
  (14): ReLU()
  (15): Linear(in_features=64, out_features=1, bias=True)
)
Sequential(
  (0): Linear(in_features=240, out_features=64, bias=False)
  (1): BatchNorm1d(64, eps=1e-05, momentum=0.1, affine=True, track_running_stats=True)
  (2): ReLU()
  (3): Linear(in_features=64, out_features=64, bias=False)
  (4): BatchNorm1d(64, eps=1e-05, momentum=0.1, affine=True, track_running_stats=True)
  (5): ReLU()
  (6): Linear(in_features=64, out_features=64, bias=False)
  (7): BatchNorm1d(64, eps=1e-05, momentum=0.1, affine=True, track_running_stats=True)
  (8): ReLU()
  (9): Linear(in_features=64, out_features=64, bias=False)
  (10): BatchNorm1d(64, eps=1e-05, momentum=0.1, affine=True, track_running_stats=True)
  (11): ReLU()
  (12): Linear(in_features=64, out_features=64, bias=False)
  (13): BatchNorm1d(64, eps=1e-05, momentum=0.1, affine=True, track_running_stats=True)
  (14): ReLU()
  (15): Linear(in_features=64, out_features=1, bias=True)
)
Sequential(
  (0): Linear(in_features=240, out_features=64, bias=False)
  (1): BatchNorm1d(64, eps=1e-05, momentum=0.1, affine=True, track_running_stats=True)
  (2): ReLU()
  (3): Linear(in_features=64, out_features=64, bias=False)
  (4): BatchNorm1d(64, eps=1e-05, momentum=0.1, affine=True, track_running_stats=True)
  (5): ReLU()
  (6): Linear(in_features=64, out_features=64, bias=False)
  (7): BatchNorm1d(64, eps=1e-05, momentum=0.1, affine=True, track_running_stats=True)
  (8): ReLU()
  (9): Linear(in_features=64, out_features=64, bias=False)
  (10): BatchNorm1d(64, eps=1e-05, momentum=0.1, affine=True, track_running_stats=True)
  (11): ReLU()
  (12): Linear(in_features=64, out_features=64, bias=False)
  (13): BatchNorm1d(64, eps=1e-05, momentum=0.1, affine=True, track_running_stats=True)
  (14): ReLU()
  (15): Linear(in_features=64, out_features=1, bias=True)
)
Sequential(
  (0): Linear(in_features=240, out_features=64, bias=False)
  (1): BatchNorm1d(64, eps=1e-05, momentum=0.1, affine=True, track_running_stats=True)
  (2): ReLU()
  (3): Linear(in_features=64, out_features=64, bias=False)
  (4): BatchNorm1d(64, eps=1e-05, momentum=0.1, affine=True, track_running_stats=True)
  (5): ReLU()
  (6): Linear(in_features=64, out_features=64, bias=False)
  (7): BatchNorm1d(64, eps=1e-05, momentum=0.1, affine=True, track_running_stats=True)
  (8): ReLU()
  (9): Linear(in_features=64, out_features=64, bias=False)
  (10): BatchNorm1d(64, eps=1e-05, momentum=0.1, affine=True, track_running_stats=True)
  (11): ReLU()
  (12): Linear(in_features=64, out_features=64, bias=False)
  (13): BatchNorm1d(64, eps=1e-05, momentum=0.1, affine=True, track_running_stats=True)
  (14): ReLU()
  (15): Linear(in_features=64, out_features=1, bias=True)
)
Sequential(
  (0): Linear(in_features=240, out_features=64, bias=False)
  (1): BatchNorm1d(64, eps=1e-05, momentum=0.1, affine=True, track_running_stats=True)
  (2): ReLU()
  (3): Linear(in_features=64, out_features=64, bias=False)
  (4): BatchNorm1d(64, eps=1e-05, momentum=0.1, affine=True, track_running_stats=True)
  (5): ReLU()
  (6): Linear(in_features=64, out_features=64, bias=False)
  (7): BatchNorm1d(64, eps=1e-05, momentum=0.1, affine=True, track_running_stats=True)
  (8): ReLU()
  (9): Linear(in_features=64, out_features=64, bias=False)
  (10): BatchNorm1d(64, eps=1e-05, momentum=0.1, affine=True, track_running_stats=True)
  (11): ReLU()
  (12): Linear(in_features=64, out_features=64, bias=False)
  (13): BatchNorm1d(64, eps=1e-05, momentum=0.1, affine=True, track_running_stats=True)
  (14): ReLU()
  (15): Linear(in_features=64, out_features=1, bias=True)
)
Sequential(
  (0): Linear(in_features=240, out_features=64, bias=False)
  (1): BatchNorm1d(64, eps=1e-05, momentum=0.1, affine=True, track_running_stats=True)
  (2): ReLU()
  (3): Linear(in_features=64, out_features=64, bias=False)
  (4): BatchNorm1d(64, eps=1e-05, momentum=0.1, affine=True, track_running_stats=True)
  (5): ReLU()
  (6): Linear(in_features=64, out_features=64, bias=False)
  (7): BatchNorm1d(64, eps=1e-05, momentum=0.1, affine=True, track_running_stats=True)
  (8): ReLU()
  (9): Linear(in_features=64, out_features=64, bias=False)
  (10): BatchNorm1d(64, eps=1e-05, momentum=0.1, affine=True, track_running_stats=True)
  (11): ReLU()
  (12): Linear(in_features=64, out_features=64, bias=False)
  (13): BatchNorm1d(64, eps=1e-05, momentum=0.1, affine=True, track_running_stats=True)
  (14): ReLU()
  (15): Linear(in_features=64, out_features=1, bias=True)
)
will do fold 1 of 10
WARNING - using fully labeled dataset
Training - samples: 919659, positives: 160057, labeled: 160057
will do fold 1 of 10
WARNING - using fully labeled dataset
Validation - samples: 102185, positives: 17784, labeled: 17784
will do fold 1 of 10
Test - samples: 255500, positives: 44340, labeled: 44340
Set max_epochs to 309
===  Actual Configuration
…
